OC/P9/v2-cnn-classifier/output/model.tflite (tflite, 132784 bytes, 10 tensors)

sequential/conv2d/BiasAdd/ReadVariableOp f4 [16]
000000 f4 07 97 3c 4a 69 2d 3c 65 46 29 3c 48 a0 33 bc
       0.01843641 0.010584185 0.010331725 -0.010963507
000010 e0 72 4a 3d 69 d5 70 3c d8 b7 10 bb e7 bc e9 3b
       0.04942596 0.014699318 -0.0022082236 0.0071331146
000020 c9 94 c8 3c 7d ea aa bc 05 27 82 bb 1b d2 dc 3b
       0.024485009 -0.020863766 -0.0039719366 0.0067389137
000030 a1 45 0a bc d5 cc aa 3a 01 b5 bc bb 9e 89 81 bc
       -0.008439452 0.0013031015 -0.005758882 -0.015812691

sequential/conv2d_1/BiasAdd/ReadVariableOp f4 [32]
000000 8e 66 a5 3b 8c 2b 95 bb ec b6 5c 3c 93 65 24 3c
       0.005047626 -0.0045523103 0.013471346 0.010033983
000010 af f3 a7 3c 0c 9a 09 bc ad 90 b5 3c 14 98 88 3c
       0.02050194 -0.008398544 0.022163713 0.016674079
000020 f0 d4 de 3c 04 2f 14 3d f2 f9 42 3c d3 99 96 bc
       0.027201146 0.03617765 0.011900412 -0.018383896
000030 77 9d 9c 3c 0e 5e 1f 3c 64 27 48 38 ff 77 99 bc
       0.019118054 0.009727014 4.77204e-05 -0.018733976
000040 8e 20 5c 3c 49 c0 bd 3a e9 34 55 bc a5 9b 00 bc
       0.013435496 0.0014476861 -0.013013103 -0.007849609
000050 c8 77 23 bc d2 18 19 3c 24 63 91 bc f0 5e 52 3c
       -0.009977289 0.0093442965 -0.01774747 0.012840018
000060 ca f3 f7 3c f8 66 ab 3b 15 20 9d bc a2 23 4f bc
       0.030267615 0.0052307807 -0.019180337 -0.012642773
000070 77 88 51 bc 64 1f ae bc eb 2c 34 bc 41 1b b9 3c
       -0.012788883 -0.021255203 -0.010997037 0.022596003

sequential/conv2d_2/BiasAdd/ReadVariableOp f4 [64]
000000 a8 2c 62 bc 82 4e ca 3c b5 f9 ce bb 8f ac 84 bb
       -0.013804592 0.024695639 -0.0063163885 -0.004048891
000010 3e 8d f1 bb bf ec a7 3c af 43 09 3d b1 c8 c9 bb
       -0.0073715737 0.020498632 0.033511814 -0.0061579575
000020 d5 22 0f bc a2 27 2e bc 24 15 f1 3c 11 6a 2f bc
       -0.008736332 -0.010629566 0.029429026 -0.010706441
000030 a9 11 14 bb 83 15 87 bc 0d 25 34 bc b0 7b 2e 3c
       -0.0022593534 -0.01648975 -0.010995162 0.010649607
000040 01 b3 bc 3c 00 00 00 00 e1 ef 0f 3d 02 3d d0 bc
       0.023034574 0.0 0.035140876 -0.025419716
000050 7c cf 25 bb e5 10 0e bc ae ac d2 bb c5 32 ed 3c
       -0.0025300672 -0.00867102 -0.0064292764 0.028954873
000060 ad 85 80 bc 40 05 b8 3c 80 7a df bb ee 97 ce 3c
       -0.015688742 0.02246344 -0.006820023 0.02521893
000070 b8 bf 3a bc 55 b5 bf bb 1c f0 56 bc bc 70 ca 3c
       -0.011398248 -0.005850474 -0.01311877 0.024711959
000080 f7 56 35 bc e5 a8 7b 3c 13 10 34 3d de 59 3d bc
       -0.011068097 0.015360092 0.043960642 -0.011557071
000090 d0 4e 4e bc c9 9e 57 bb 88 08 0a bc 21 b4 4a bc
       -0.012592033 -0.003290104 -0.008424886 -0.012372048
0000a0 6a fa 80 bc ab bb 8c bc 4e 80 2e bc 7c 5d c3 bb
       -0.015744407 -0.01717933 -0.010650707 -0.005962072
0000b0 e5 f2 df 3c 50 32 c2 bb 58 2e e2 3c 8b ff 74 bb
       0.0273375 -0.005926408 0.027609989 -0.003738376
0000c0 e4 70 ca bb 50 5a b0 bc 48 b2 b2 bb 79 74 81 bb
       -0.0061780084 -0.02152744 -0.0054533817 -0.003950652
0000d0 0c 40 39 bc be cb d4 bb 11 e5 aa 3a 39 9b 5b 3b
       -0.011306774 -0.0064940145 0.0013038238 0.0033509268
0000e0 df 15 d9 3b d4 92 5e bc 26 e7 da 3c f6 29 a4 bc
       0.0066249217 -0.013584811 0.026721548 -0.02003954
0000f0 27 9a 9d bc e3 dc 5e ba 3e 01 ef 3c 1c ae 4b bb
       -0.019238545 -0.00085015426 0.029175397 -0.003107912

sequential/conv2d/Conv2D f4 [16, 3, 3, 3]
000000 fb 40 35 be a7 9d 23 3d 57 69 a6 bd 9d 62 2a 3e
       -0.1770057 0.03994527 -0.08125561 0.1663918
000010 39 f5 29 3e e9 9b 37 3e 13 1c 22 bd f0 a6 12 3e
       0.16597451 0.17930569 -0.039577555 0.14321494
000020 15 b3 e8 3d 8c ac 15 3e f7 7a 4b 3e 6e 76 d2 3d
       0.11362282 0.14616603 0.19871126 0.10276495
000030 30 65 ec bd 03 88 16 be b8 66 85 bd b0 22 f4 3d
       -0.115427375 -0.14700322 -0.06513733 0.119206786
000040 e8 b6 16 3e 50 da 3a 3c 8c fb 04 be 8c 2d 57 bc
       0.1471821 0.011404589 -0.12986583 -0.013133418
000050 21 51 3d be 75 07 b1 3d a8 18 4c bd e3 05 e2 3c
       -0.1848798 0.086440004 -0.0498282 0.027590698
000060 12 f8 50 be e0 6a bd bd 19 6f 28 3d 9a 62 8b bd
       -0.20407131 -0.092489004 0.041121576 -0.06805916
000070 00 83 59 3e 6c 5a a5 3d 86 65 cb 3a 5c 19 43 bd
       0.21241379 0.08073887 0.0015517927 -0.047631606
000080 08 03 38 3e 80 79 0f 3e e0 e9 81 bb 84 d6 0f be
       0.17969906 0.14011192 -0.0039646477 -0.14046675
000090 5f 53 c0 bd c7 4b 58 3d f3 e2 0e 3e 17 80 0c bb
       -0.09390902 0.052806642 0.13953762 -0.0021438652
0000a0 71 23 c0 3d a3 55 46 3e 37 27 8c bd 07 07 60 3e
       0.0938176 0.19368605 -0.06843417 0.2187768
0000b0 53 4c b1 3b b0 5e 58 bb 15 cf 18 be f4 03 39 bc
       0.00541071 -0.0033015423 -0.14922746 -0.011292446
0000c0 f7 27 52 3d 82 26 09 be 8f 40 98 bd bd 18 35 bd
       0.051307645 -0.13393596 -0.074341886 -0.044213045
0000d0 98 5d 4f bc 9a ba 44 3e f5 10 21 be d9 50 35 3e
       -0.012656592 0.19211808 -0.15729125 0.17706622
0000e0 05 d4 db 3c 9b a1 bb 3c 23 29 15 be 02 6c 12 bd
       0.026834497 0.022904208 -0.14566474 -0.035747536
0000f0 0b 72 c3 bd 6d 3a 3b 3e 0d fb 29 3e 34 f5 fc bd
       -0.09543236 0.18284006 0.16599675 -0.12351456
000100 a4 d4 8c 3d e8 52 1a 3e f7 60 bc bd 46 05 fa bc
       0.068764955 0.15070689 -0.09198182 -0.030520093
000110 36 db 50 3d f2 0c 75 bd bb 06 43 3e d7 be eb bd
       0.050990306 -0.0598268 0.19045536 -0.11511009
000120 75 3f cc bd c8 2b a7 3d f4 b5 20 bd 26 be 07 be
       -0.09973041 0.081626475 -0.039236024 -0.1325613
000130 3e 52 15 be 77 97 c4 3c 4a 56 f2 3d 5e 86 54 bd
       -0.14582154 0.023998005 0.118328646 -0.051885955
000140 50 17 a5 3d 98 20 33 be fe 3d f1 3d 22 a4 bd bd
       0.08061087 -0.17492902 0.11779402 -0.092598215
000150 b6 91 95 bc df 4a 76 3d 7d fb e8 bd 09 57 88 bd
       -0.018257957 0.060129996 -0.113760926 -0.06657226
000160 fc 19 fd 3d 74 29 b0 3d 40 23 a5 bd e7 f4 0d 3e
       0.12358472 0.086016566 -0.08063364 0.13862954
000170 02 a3 0b 3e 47 40 18 be 9f 9e 2c bc a0 11 13 3e
       0.13636401 -0.1486827 -0.010535865 0.14362192
000180 8a 85 e0 3c fa 6b 07 be 5f 0b 98 bd df a2 32 bd
       0.027407426 -0.13224784 -0.07424044 -0.043612357
000190 b0 94 cd bd 9b 80 a5 3d 19 de 9a 3d 0b 21 3c bc
       -0.100381255 0.0808117 0.07561893 -0.011482487
0001a0 05 ce bf bd fb 63 c4 bd 2f 05 b6 bd a0 a6 74 bd
       -0.09365467 -0.09589382 -0.088877074 -0.05972922
0001b0 05 ef de 3d 6e 54 55 bd 4a 66 23 3e 3e 31 06 be
       0.10885433 -0.05208247 0.15956989 -0.13104722
0001c0 bd b2 56 3e 35 91 28 3e cc 16 b4 bc fe ef 21 be
       0.2096662 0.16461642 -0.021983527 -0.15814206
0001d0 62 8e 2c be 84 7b 97 bb b8 12 2c bb 02 2d d4 3a
       -0.1685119 -0.0046228785 -0.0026256274 0.001618773
0001e0 ea 04 db bd d1 f4 4e bd d5 4e 2d 3e 49 f9 06 3e
       -0.10694297 -0.050526444 0.16924603 0.13181032
0001f0 34 5d 2c 3d 4c c7 85 bd e3 a8 91 3d a6 40 b9 3d
       0.042081073 -0.065321535 0.07112291 0.09045534
000200 cb c0 eb 3d 58 ba 0a be 15 c7 d5 bd 7a 99 99 bc
       0.11511382 -0.13547647 -0.104383625 -0.018749941
000210 d7 04 06 be 2e bd e3 bd da 3c 25 be c2 d5 d6 bd
       -0.13087784 -0.111200675 -0.16136494 -0.1048999
000220 ba 44 cc 3d d1 c0 0f be 26 3c 27 be 0f 3b 17 3e
       0.09974046 -0.14038397 -0.16331539 0.14768623
000230 56 6a 95 bc 5f 2f 14 be 3c 27 88 bd c6 74 7d 3d
       -0.018239181 -0.14471196 -0.06648108 0.061878942
000240 7f ed 28 3e 27 62 c0 3d 57 90 c9 3c d9 0a 2a be
       0.16496848 0.09393721 0.02460496 -0.166057
000250 72 e4 87 bc ea 3d 1d bc 6d 34 cd 3d 53 6f 0e 3e
       -0.016588423 -0.009597281 0.10019765 0.13909654
000260 b1 11 d2 3d 04 2a a7 3d 46 1c 34 3e 0c 54 57 bc
       0.102572806 0.08162311 0.1758891 -0.013142597
000270 bb 10 01 3c ac b3 18 be 2d 70 e3 3c 9f 35 3a be
       0.007877524 -0.1491229 0.02776345 -0.18184517
000280 4d e2 61 3c 90 e9 b1 bd c6 90 d6 3d 21 22 f9 3c
       0.0137868645 -0.08687127 0.10476832 0.030411782
000290 d4 97 59 be 99 58 16 3d af a8 de bd 1c fc ff bd
       -0.21249324 0.036705587 -0.108720176 -0.12499258
0002a0 82 20 da 3d d8 80 05 3d 28 d9 f6 bc 8e e4 4e 3e
       0.106507316 0.032593578 -0.030132845 0.20204374
0002b0 d8 6e 3f be 9b 20 4b be 68 52 27 3e 41 33 2d be
       -0.18694627 -0.19836657 0.16340029 -0.16914083
0002c0 37 b3 97 3d bb 2a b5 bc ec 85 f5 bd 79 f4 9a bd
       0.074072294 -0.022115102 -0.11988434 -0.07566161
0002d0 0e dc ed 3d 9f 3b 8e bd 89 21 8d bd e5 1f 33 3e
       0.11614238 -0.069449656 -0.06891162 0.17492636
0002e0 b0 18 73 3d 79 56 64 bd c3 41 ee bd f1 c7 0a 3c
       0.059349716 -0.05574653 -0.11633637 0.008470521
0002f0 a4 27 17 be cd fe 4c 3c 29 24 2a 3e e9 47 ba bc
       -0.14761215 0.012511921 0.16615357 -0.022739368
000300 89 b6 5b 3d 3b 35 53 3e 82 0c 34 3e 13 c4 5b bd
       0.053640876 0.20625775 0.17582896 -0.053653788
000310 6b a5 00 3e dc af 0b 3d 90 ab 9a 3d 22 63 f4 bd
       0.12563102 0.03410326 0.07552254 -0.119329706
000320 69 e9 fd 3d 75 2c 0c bc c7 db 0c 3e a0 ad 14 be
       0.12398035 -0.008555521 0.13755713 -0.14519358
000330 17 99 0d be 3c 5f d4 3d 57 c1 04 be e9 3a 9e bd
       -0.1382793 0.10369727 -0.12964378 -0.0772608
000340 4e 8f 2f 3e 89 b7 3a 3e bc fa 19 3a 9c cb e1 3d
       0.1714451 0.18234076 0.0005873849 0.110251635
000350 28 ed 40 bc c9 2c 3d be ad 65 39 3b fb 11 e1 3c
       -0.011775292 -0.18474115 0.0028289363 0.027474394
000360 88 a5 2e 3e 7b eb 6c 3e 37 26 f2 3d 65 9d 57 3b
       0.17055333 0.23136704 0.11823695 0.003290021
000370 05 97 15 3c 94 92 aa 3d f7 4a a1 3c 50 d6 3a 3e
       0.009130244 0.08328739 0.019689066 0.18245816
000380 79 00 1e be dc 36 98 bd da 9c e8 bd 04 95 8b bd
       -0.15429868 -0.074323386 -0.11358042 -0.06815532
000390 0d 63 ec 3b bc ca 80 ba 3d 10 22 3e 58 76 10 3e
       0.007213956 -0.0009826045 0.15826507 0.14107645
0003a0 2f ec ee 3d b8 6c 05 bd ed 53 4a be 95 66 97 bd
       0.11666142 -0.032574385 -0.19758578 -0.07392613
0003b0 05 7a 2b 3c 46 9d 09 be 09 73 44 3e b0 68 4d bc
       0.010466103 -0.13438901 0.19184507 -0.0125371665
0003c0 3e dc e7 bd a8 52 d0 bd b4 4d c1 3b f7 77 e7 3b
       -0.11321305 -0.101720154 0.0058991555 0.0070638615
0003d0 00 be ab bd 51 00 8a 3d e1 fe 81 3d e7 49 5d be
       -0.08385849 0.067383416 0.063474424 -0.21610223
0003e0 02 ca 65 bd 6f 81 39 3e a0 16 a4 bd 12 37 f9 3d
       -0.056100853 0.18115781 -0.08012128 0.12168707
0003f0 69 40 96 3d 32 89 74 be b9 f9 f3 3c cc f7 cb 3d
       0.07336504 -0.23880461 0.029782163 0.09959373

sequential/conv2d_1/Conv2D f4 [32, 3, 3, 16]
000000 7d 58 21 be 1d db 8f bd d7 05 75 3d da 15 16 bd
       -0.15756412 -0.070242144 0.059820022 -0.036641933
000010 a1 12 01 3e 3f 44 ae bd 26 96 8e 3d de 17 66 bd
       0.12604763 -0.08509111 0.06962232 -0.056175105
000020 6d 2a bb bd 3f 73 29 bd 64 3f b5 bc 91 9a f9 bd
       -0.091389515 -0.041369673 -0.022124954 -0.12187684
000030 5e 84 be bd e6 5d 17 bc 3b a2 e4 bd 9b 1d 76 3d
       -0.09302591 -0.009238696 -0.111637555 0.060086828
000040 75 50 11 be 50 4e 67 bc 42 b8 07 bc c5 51 a5 bc
       -0.14190848 -0.014117792 -0.008283677 -0.020180592
000050 9d be 8b 3d 61 15 9a 3d ef 82 37 3e 27 65 0e bc
       0.06823466 0.07523609 0.17921041 -0.008691109
000060 bf 7f 29 be 88 ab c4 3d 7f b3 7f 3d 1b b2 3a bb
       -0.16552638 0.096030295 0.06242704 -0.0028487507
000070 b7 cc 5e 3d 8a ab fc bc de 93 d0 bd a2 50 f9 bc
       0.05439445 -0.030843515 -0.101844534 -0.030433957
000080 26 f6 b5 bd 85 b6 82 3c b2 1f 05 3a 98 14 bb 3d
       -0.0888484 0.015956173 0.00050782703 0.09134787
000090 6c e0 a4 3d 07 b3 ba bd a2 02 6a 3d c3 25 ac 3c
       0.080506176 -0.09116178 0.057131417 0.0210141
0000a0 e2 52 f5 bd 47 76 15 ba 55 3a 83 3c 70 85 92 bd
       -0.11978699 -0.00057015236 0.016019026 -0.071543574
0000b0 fa 96 0d 3d 69 a1 4b bd 93 22 66 bd 25 1f ed 3b
       0.03456781 -0.04971448 -0.056185316 0.0072363787
0000c0 c8 6f fa bd f1 a6 da bd 32 9b 96 3d 45 8b 88 3d
       -0.12228352 -0.10676373 0.0735382 0.066671886
0000d0 dc fb ff bc 51 46 0c be 42 57 4b 3d 40 79 85 3b
       -0.031248026 -0.13698699 0.049643762 0.004073292
0000e0 62 4b 09 be 0a c6 8f 3c e2 cc dc 3d 35 5c 23 bd
       -0.13407663 0.017550487 0.10781266 -0.039882857
0000f0 58 49 fa bc b1 7a 09 bd 76 09 d4 3c 83 58 05 3d
       -0.030552551 -0.033564273 0.025883418 0.032555114
000100 61 29 ac bc 7e 5e d0 bc 53 78 ac bd e0 97 58 3d
       -0.021015825 -0.025435682 -0.084213875 0.052879214
000110 c6 d9 b2 bd fb 8b b6 bd ec 3e 3c 3e e9 05 1e be
       -0.08732943 -0.08913418 0.18383378 -0.15431942
000120 2a 58 9f bd 3e 04 fb 3d fc d0 d0 ba 2e e4 db bc
       -0.07780488 0.122566685 -0.0015931423 -0.026842203
000130 39 f2 c0 bd de 6f e7 bd ac 1c be 3d ab dd 03 3d
       -0.094212 -0.11300634 0.092828125 0.03219382
000140 01 53 1a be a2 7b 24 3d 74 80 83 bd a7 de 98 bd
       -0.15070726 0.040156968 -0.06420985 -0.074643426
000150 53 9e 2e bd 2c 5b c2 3d d7 e4 d3 bb a7 e7 e8 bd
       -0.04263146 0.09490046 -0.006466489 -0.11372309
000160 16 c6 35 be d3 d6 c4 3d 8c 42 75 bc 81 a6 87 3d
       -0.17751345 0.09611287 -0.014969479 0.06623555
000170 ea 5c a9 bb a7 6c b6 3d c2 95 bf bd 88 0a d6 3c
       -0.005168547 0.089074425 -0.09354736 0.026128069
000180 3f 67 f7 bd 6d 34 89 3d a3 47 cc bd 0e 91 e4 ba
       -0.120802395 0.066994525 -0.09974601 -0.0017438249
000190 e1 ce fe 3d 9f 84 c6 bc f9 26 e7 3d c3 f1 80 3d
       0.12441803 -0.02423316 0.1128673 0.062961124
0001a0 e4 00 cc bd d8 2a f7 bc af 27 3e 3d ad 95 94 3d
       -0.099611074 -0.030171797 0.046424564 0.07255111
0001b0 69 fe bf bd 25 fe 82 bc ff d2 aa bd 59 b9 a6 bd
       -0.09374697 -0.015990326 -0.083410256 -0.08140821
0001c0 7d 1b 91 bd ba 48 b8 bd 6f 21 ef 3c 6d 42 23 3d
       -0.07085321 -0.089982465 0.029190747 0.03985827
0001d0 06 34 56 3c 2a da 3b 3d de 1e 8d bb a3 bc bb bc
       0.013073927 0.045862354 -0.004306658 -0.022917097
0001e0 10 24 00 be 1a fe 0c 3e 20 fa 09 3e da 40 65 bd
       -0.12513757 0.13768807 0.13474321 -0.05597005
0001f0 de d9 d7 3d 00 1a d8 bd 84 b8 42 3d 14 b9 c3 3b
       0.10539602 -0.10551834 0.04753925 0.0059729908
000200 06 e0 b3 bd ef 48 c2 bd 4b 68 26 3d 68 5d dd bd
       -0.087829635 -0.09486567 0.040626805 -0.108088315
000210 54 10 65 3d e0 4d e0 bd 92 05 d4 bb 46 56 7e bd
       0.055923775 -0.109523535 -0.0064703906 -0.062093996
000220 8d 92 f0 bd a0 57 6e 3d 72 b8 93 bd 6a 4b 55 3d
       -0.11746702 0.058189034 -0.072129145 0.052073874
000230 9a 39 d6 bc 03 14 db bd f4 dd 8f bc d2 fe c9 bd
       -0.026150513 -0.10697176 -0.01756189 -0.09863056
000240 bb 9a c4 3d bc 0e 95 bd e0 39 f1 3d 33 24 1a 3d
       0.09599825 -0.07278201 0.11778617 0.03763218
000250 db b5 c3 bb a3 eb 7f 3d 6d bf 81 3d d7 3a a5 3c
       -0.0059726066 0.06248058 0.0633534 0.020169659
000260 88 2b f3 3d 5a 5d 30 bb 27 f1 dd bd 41 5a 85 bb
       0.11873537 -0.002691111 -0.10837012 -0.004069597
000270 59 ea 1d 3d ac 84 b3 bd 90 09 ca 3d 2d aa 1e bd
       0.03855357 -0.087655395 0.09865105 -0.03873651
000280 90 1d f1 3c 35 74 e1 3d 6b 4a b5 bd be 29 13 3c
       0.029433042 0.11008493 -0.08852085 0.00898212
000290 01 36 31 3c 01 f1 9d 3a 86 71 d3 3d a9 e7 82 3d
       0.010816098 0.0012049974 0.10324387 0.06391842
0002a0 a3 7a aa bd 68 e3 b6 3d de eb 19 3d e3 6b 8b bc
       -0.08324172 0.08930093 0.037578456 -0.017019218
0002b0 ab 47 6c bd 00 d0 f6 bd cf ae e9 3d 67 67 eb 3d
       -0.057685535 -0.120513916 0.11410295 0.11494332
0002c0 44 80 5a bd ae 29 9e 3d 35 77 17 ba 24 bb 70 3d
       -0.05334498 0.077227935 -0.0005777956 0.05877222
0002d0 28 b3 9e bc f5 4a b1 bd 5e 6c 91 3c 44 6a c2 bd
       -0.019372538 -0.08656875 0.017751869 -0.09492925
0002e0 18 c3 2e 3d f1 a3 0b 3e 25 3b cb bc 76 2d 01 bd
       0.042666525 0.13636757 -0.024808476 -0.031537496
0002f0 7f 94 99 bd 28 24 b3 bd 47 87 42 3d b0 87 aa 3d
       -0.074990265 -0.08747131 0.04749229 0.083266616
000300 fe d9 a2 bd ff 8b c1 3d 4d 53 03 3e c2 60 54 3a
       -0.07951735 0.0945053 0.12824745 0.0008101576
000310 d3 30 c5 3b ab 43 0b 3c 80 4a 96 bc 45 a7 70 bd
       0.006017783 0.00850002 -0.018346071 -0.05875327
000320 f6 52 b1 bd b4 3f 02 3e c3 68 a1 bd 96 9c e3 bd
       -0.08658402 0.12719613 -0.0788131 -0.11113851
000330 9f f4 01 3e 56 da a1 3d 84 76 ee 3d 1d 19 c6 3d
       0.12690972 0.079029724 0.11643699 0.09672759
000340 da ba a8 bd 7d f6 e2 bd bd 7c 6e 3d 6a 29 b1 bc
       -0.08238764 -0.1108217 0.05822443 -0.021626193
000350 f4 e8 5f bd 41 6a 8f 3d 51 c2 08 3e 3f 84 7e 3d
       -0.05466552 0.07002688 0.13355376 0.06213784
000360 78 bf 8e 3d 34 df 61 3d 0a fd da bd de 76 39 bb
       0.069701135 0.055144504 -0.106927946 -0.002829961
000370 aa ad d3 3d 43 2d 00 bd d9 44 fe ba 08 b5 cf bd
       0.10335858 -0.031293165 -0.001939918 -0.10141951
000380 d5 35 98 bd c3 c8 bc 3d 94 84 cc bd a1 81 39 3d
       -0.07432143 0.0921798 -0.09986225 0.04528964
000390 f5 0f 66 3d 30 9e f1 bd 3c 53 ee 3a 62 9b a8 bb
       0.05616756 -0.1179775 0.0018182765 -0.005145476
0003a0 ff e7 74 bc c4 c3 0b 3e 91 9e d5 3d b6 f7 dc bd
       -0.01494789 0.13648897 0.10430635 -0.107894346
0003b0 03 4c c6 3d 02 62 cf 3c 9e 06 fa 3c 9f dc 7f bd
       0.09682467 0.025315288 0.030520733 -0.06246626
0003c0 3d 75 bb 3d d8 34 00 ba 2b 12 87 3d 55 97 ee bd
       0.09153221 -0.0004890687 0.06595262 -0.11649958
0003d0 fb 7f 1b 3d 86 77 7a bd 98 33 c6 3d 53 eb fe 3c
       0.03796385 -0.061149143 0.096778095 0.03111807
0003e0 3f 20 1b ba 11 58 8c 3d 69 3d 28 bd d6 f9 a9 bd
       -0.0005917586 0.06852735 -0.04107419 -0.082996055
0003f0 e2 f2 50 3d df ab 10 3d 15 ff a7 3d 83 2b b3 3c
       0.05101288 0.03532016 0.0820295 0.021871334

sequential/conv2d_2/Conv2D f4 [64, 3, 3, 32]
000000 a3 af 34 3c a1 5c 91 bd f4 fb 8f 3d e2 c4 2c 3d
       0.011028203 -0.07097746 0.07030478 0.04217995
000010 3b f6 1a 3d eb d2 88 bd 9f 19 c5 bc 9e 36 d0 bc
       0.03783248 -0.066808544 -0.024060069 -0.025416669
000020 89 94 7f bd ca 00 0e bc 13 94 6f 3d 4d 2f 4d bd
       -0.062397514 -0.00866718 0.058490824 -0.050093938
000030 fe 18 1f 3d 4b a4 67 bd ee b4 5b bd 85 1b 59 3d
       0.038842194 -0.056553166 -0.053639345 0.05300476
000040 cc 57 99 3d 43 f0 91 bd e6 a4 8f bd fe d6 56 bc
       0.07487449 -0.071259044 -0.07013874 -0.013112782
000050 ff 92 f9 3b 1f 28 59 3d b6 89 52 bd 69 39 aa bd
       0.0076164003 0.053016778 -0.051400863 -0.08311731
000060 e5 97 47 3c e0 13 8a bc 2a 6c a1 3d 7a 1c 4b 3d
       0.012182211 -0.01685518 0.07881959 0.049587704
000070 97 fb 36 bd 56 34 27 3d 33 b3 a9 bd 58 44 83 3b
       -0.04467353 0.040821396 -0.08286133 0.00400595
000080 35 38 b0 bd 3a 10 78 bc e4 d2 12 bd 76 13 d2 3b
       -0.08604471 -0.015140587 -0.035845652 0.0064110113
000090 73 cd 47 3d e6 3e be 3c 1b 58 cb bc 69 62 18 bc
       0.048779916 0.023223352 -0.024822285 -0.009300807
0000a0 f9 db fa 3c 66 0d 8a bc b3 a6 81 bc cb 37 8e 3d
       0.03062247 -0.016852092 -0.015826559 0.069442354
0000b0 f3 84 c0 bd c8 60 e7 3c 9b 2b 36 bd 3a 8c 80 bc
       -0.09400358 0.028244391 -0.04447518 -0.015691865
0000c0 39 5b 8b bd 14 35 90 bd cc 73 97 bc de 74 24 bc
       -0.06804509 -0.07041374 -0.018487833 -0.010037629
0000d0 03 e0 af bb f7 49 a3 bd 33 83 33 3d b8 8a 52 3d
       -0.0053672804 -0.07973092 0.043826293 0.051401824
0000e0 0a d5 de 3b 31 a1 72 3d 78 3e 18 3d 33 47 95 bd
       0.0068002986 0.059235755 0.03716895 -0.07288971
0000f0 7a 24 cd 3c b3 5e 99 3d 60 66 f2 3c c5 d7 90 3c
       0.025041807 0.074887656 0.029589832 0.017681012
000100 dc 51 44 bd 78 44 f8 3c c8 a6 8e bd 6e 4a 9a 3d
       -0.04792963 0.030306086 -0.06965405 0.075337276
000110 bf 58 b8 bd a9 ef 84 bd 93 4f b9 bd 02 b8 4d 3d
       -0.09001302 -0.06491024 -0.09048381 0.05022431
000120 26 ab 5b 3c f8 08 ac bd 9a 20 42 3d 7e 50 3e bd
       0.013407504 -0.08400148 0.047394373 -0.046463482
000130 98 7d 87 3d 49 42 91 bd f8 84 24 bc 21 3d 0f 3d
       0.06615752 -0.07092721 -0.010041468 0.034970406
000140 a3 18 53 bd 66 87 09 bd 98 97 3d 3c 4b fe 83 3c
       -0.051537167 -0.03357639 0.011571787 0.016112467
000150 fc d9 6a bd bf 22 8b 3b 2d 26 74 bd 01 c5 36 bd
       -0.057336792 0.0042460854 -0.05960672 -0.04462147
000160 9c 5a 0f 3d 0d dc 89 3d 62 ce 9c bb 11 dc 5c 3d
       0.03499852 0.067314245 -0.004785345 0.05392081
000170 94 85 eb bc 18 cd 26 bc 50 4e 9e bb 63 2c 0d bd
       -0.028750218 -0.010180734 -0.004831113 -0.03446616
000180 4d 93 89 3c 4d 72 56 3c e7 d1 c7 bc 3c 9d 27 bb
       0.016793871 0.013088775 -0.024392081 -0.0025575897
000190 ee 27 24 bd e6 13 36 3d c5 7b 47 3d c2 88 61 bd
       -0.040077142 0.04445257 0.04870202 -0.055062063
0001a0 63 8d cb bd da 57 b3 bd cd 51 90 bd ac d6 b3 3c
       -0.09939077 -0.08756991 -0.07046852 0.02195295
0001b0 91 2a 84 bb a4 85 92 3d a8 74 8e bd 81 5f ca 3c
       -0.0040333946 0.07154396 -0.06955844 0.024703743
0001c0 7d 85 6f 3d 5d 28 9d 3d 91 64 fa bc 17 a4 00 3d
       0.058476914 0.07673714 -0.030565532 0.03140649
0001d0 16 e8 8f 3d f1 a1 8a 3d 3f 56 86 3d 85 f0 81 bd
       0.07026689 0.06769169 0.06559419 -0.063447036
0001e0 37 1a 3c 3d 58 24 ae 3d d9 9e 39 3c 30 3d 4f bd
       0.045923438 0.08503026 0.011329376 -0.050595462
0001f0 48 1e 7a bc f3 63 aa 3d 50 28 a7 bd 03 af 27 bd
       -0.015266009 0.08319845 -0.08161986 -0.04093839
000200 6a 35 48 3d 59 cd 3c bd fd c6 2f 3d 9a ed 32 3c
       0.048879065 -0.046094272 0.04291438 0.010920906
000210 62 a6 84 3d 83 9c 8f 3d 9f 09 f7 3a 54 c6 20 bd
       0.064770475 0.07012274 0.0018847472 -0.03925164
000220 04 89 03 3d 52 ae fc bc f9 ff 61 3d 83 33 99 bd
       0.03211309 -0.030844841 0.055175755 -0.07480528
000230 2e 4c 14 bd 65 8a 69 3b 06 e8 88 bd 0c b1 57 bd
       -0.036205463 0.0035635468 -0.0668488 -0.05265908
000240 59 f2 34 3b 9c 11 2d 3c 96 e5 9f bd 7c 99 25 bd
       0.002761027 0.01056328 -0.07807462 -0.040429577
000250 ad d2 3a bd b3 ee 5d bd 94 91 d8 bc a5 0e 8d bd
       -0.045611072 -0.05418272 -0.026436605 -0.06887559
000260 9f e0 97 3c 8d 5d 94 bc 28 bb 49 3c a9 22 0a 3d
       0.018539725 -0.018111015 0.012312688 0.03372446
000270 0c ee de bb 53 99 eb bb 20 9e 93 3c 5f 21 f8 3c
       -0.0068032797 -0.0071899085 0.018019736 0.03028935
000280 05 0a fa 3c 20 cf 11 bd 5a 94 1c bd 4d 0d 09 bd
       0.030522356 -0.03559792 -0.038227417 -0.03345995
000290 77 ca c1 bc 12 b3 37 bd 4a 88 c9 bd 8f 75 9d bd
       -0.023656113 -0.04484851 -0.09840448 -0.07688438
0002a0 cf 4a 2e 3c b0 ce 14 bd fa 5a aa bc 7a fa 03 3d
       0.010637953 -0.036329925 -0.020795334 0.032221295
0002b0 b2 cc a5 bd bb 61 ca bc b2 dc d2 3c b6 50 41 bd
       -0.08095683 -0.024704805 0.025740001 -0.047196113
0002c0 64 a2 ac bd 6b 58 57 3d 38 0a 89 bd af 25 24 3d
       -0.08429411 0.052574556 -0.06691402 0.040075
0002d0 29 fc 55 bd 90 71 53 bc e9 33 a7 bc 2a 78 79 3d
       -0.05224243 -0.012905493 -0.020410495 0.060905613
0002e0 a7 04 75 bd 5f ac 05 bd 72 44 22 3c 60 7b 0e bd
       -0.05981889 -0.03263509 0.009904014 -0.03478563
0002f0 7c ff d4 bc 72 fe 6a 3c e7 36 eb bc 85 f8 d3 3b
       -0.02600073 0.014342891 -0.028712703 0.006468835
000300 2c 46 65 3d 41 c1 8c bd 42 8f c2 3d 93 d9 67 bd
       0.055975124 -0.06872798 0.094999805 -0.05660398
000310 db 69 26 3d 4c 3a c5 3c 74 89 7f 3d 7b f7 3d bd
       0.040628295 0.02407565 0.062386945 -0.046378594
000320 2d 95 4d bd 40 94 4f bb 44 5c 01 bd 3b 4f a7 bd
       -0.050191093 -0.0031674057 -0.031582132 -0.08169409
000330 92 cc 4d 3d 40 3c 66 3d 08 2d 17 bd 81 21 a1 bc
       0.05024392 0.056209803 -0.03690818 -0.019669296
000340 e3 4c 6d bc 9f 1b 2e 3d 4b c1 95 3d b1 ab 77 bd
       -0.014483663 0.04250681 0.07312258 -0.060466472
000350 c7 08 5c 3c c9 5d ac 3d 9d fb 5c bd fe 4d 1c bd
       0.013429827 0.084163256 -0.053950895 -0.038160317
000360 21 92 2f 3d 96 8b 07 bb 6d 29 50 3d fa 8b 1d 3d
       0.04286397 -0.0020682565 0.050820757 0.03846357
000370 eb 77 68 3b 85 1e 88 3d 74 79 81 3c 84 87 0f bd
       0.0035471867 0.06646446 0.015804984 -0.035041347
000380 56 a4 9d bd ee f7 9c 3d 60 a4 cc 3c 36 81 62 3d
       -0.0769736 0.07664476 0.024980724 0.055299006
000390 61 7a 7e bd 18 fb 23 bd 4d 1a 52 bb db 1d cb bd
       -0.06212843 -0.040034384 -0.0032059134 -0.09917804
0003a0 d7 45 28 3c 67 9e d7 bc 44 de 27 bd aa d1 90 bd
       0.010270557 -0.02632065 -0.040983453 -0.0707124
0003b0 c5 f5 88 bd db a7 b0 3d 04 b5 40 bd a2 e7 86 3d
       -0.06687502 0.08625766 -0.04704763 0.06587149
0003c0 7e 9a 9b bd f8 9d ee 3c d0 0a 5d bd 8f 4a 51 3d
       -0.075978264 0.02912806 -0.05396539 0.051096495
0003d0 15 68 b3 bc fc c1 ae 3b d2 64 37 3c e5 35 81 3d
       -0.021900216 0.0053331833 0.011193471 0.06309108
0003e0 ad 8a 33 3d 6b 3e 2a 3d ff 44 61 3c 1c da cc bc
       0.043833423 0.041563433 0.01374936 -0.025006346
0003f0 35 e3 92 bc 0c 49 d8 bc 9b 54 0c bd ce 05 68 3d
       -0.017930606 -0.026402019 -0.034260374 0.05664616

sequential/dense/BiasAdd/ReadVariableOp f4 [128]
000000 d0 aa c4 bb a2 51 10 bb a4 c5 b9 bb dd 52 d0 3c
       -0.0060018077 -0.0022021313 -0.0056693126 0.025430137
000010 d9 36 0f 3d ba 61 df 3b 8b 2a 18 bc df 40 15 bb
       0.034964416 0.00681707 -0.009287487 -0.0022774262
000020 c4 81 8e 3c 00 00 00 00 68 5b 52 3c 00 00 00 00
       0.017395861 0.0 0.012839176 0.0
000030 0e 30 79 3c 69 81 24 3d 9d 30 c4 3c c8 2a b7 3b
       0.015209211 0.040162478 0.023948962 0.0055898167
000040 04 e1 87 bc 85 eb ef 3c 67 e1 f3 3c c7 40 12 3d
       -0.016586788 0.02928711 0.029770566 0.035706308
000050 71 a8 03 3d a5 8d 5b bc 4a 4c b6 3c 15 c4 d4 3c
       0.03214306 -0.01340047 0.022253174 0.025972405
000060 b9 51 f5 3c e5 6a 55 bb 60 b6 fc bb 00 00 00 00
       0.029946195 -0.0032564935 -0.0077121705 0.0
000070 f0 50 ab bb f2 2e 19 bc 0d 92 f0 3b 7d 2c cc bb
       -0.0052281544 -0.009349572 0.0073416294 -0.0062308894
000080 e9 7f b9 3c cb cb b9 ba 94 0d 99 bc 69 b8 1a 3d
       0.022644 -0.0014175115 -0.018683232 0.037773523
000090 eb 72 d1 bc 21 2a 30 3d 2b 90 36 bc a4 0b 90 bc
       -0.025567492 0.043008927 -0.011142771 -0.017583676
0000a0 00 00 00 00 00 00 00 00 6b 8d eb bb 10 c4 cb bb
       0.0 0.0 -0.007188489 -0.006218441
0000b0 51 91 a4 39 1d 84 4c 3d a5 29 8d 3c ea d3 db bb
       0.00031388787 0.04993068 0.017231772 -0.0067086117
0000c0 00 00 00 00 f2 2d b8 bc 00 00 00 00 6b d1 25 3d
       0.0 -0.022482846 0.0 0.04048292
0000d0 b3 3a ee 3c 09 b2 65 3c 65 d3 6b bb e0 3a f7 9f
       0.029080724 0.014019498 -0.0035984155 -1.0470597e-19
0000e0 5e 36 a5 bb 52 90 30 bc fe ff d7 bc 3c 13 c2 3c
       -0.0050418815 -0.010776596 -0.026367184 0.023690812
0000f0 31 c4 c4 bb 02 78 2a bc cc 10 76 bc 95 9f a8 bc
       -0.006004833 -0.010404589 -0.015018653 -0.020583907
000100 00 00 00 00 cf 36 94 bb fc ca 00 3d 52 91 26 bc
       0.0 -0.0045231353 0.03144358 -0.010166483
000110 a3 5c c0 bc 87 28 be bb e4 d5 06 3d 45 ba ad 3c
       -0.023481673 -0.005803171 0.032918826 0.021206984
000120 e1 ac c7 bc 63 2f 81 bc cd 16 a3 3c df b7 d3 bc
       -0.024374427 -0.015769666 0.019908333 -0.025844513
000130 e0 9a 50 bb 00 00 00 00 86 4b a4 3b bf fe 85 bb
       -0.0031830594 0.0 0.005013886 -0.004089206
000140 aa 14 cb 3c 00 00 00 00 fc 4d 9b bc 27 78 07 bc
       0.024790127 0.0 -0.018958084 -0.008268393
000150 3d 30 b5 3c 00 00 00 00 7c 8f bd bb 00 00 00 00
       0.022117728 0.0 -0.005784927 0.0
000160 ff 79 0d 3d 52 57 ab 3c 92 51 7f bb 53 94 53 bc
       0.034540173 0.020915661 -0.0038958532 -0.012913781
000170 e2 36 f2 3b 00 00 00 00 fd a3 71 bc 6c f3 83 bc
       0.0073917964 0.0 -0.0147485705 -0.016107284
000180 7f f2 d6 3c 9f f3 27 3a 2d 58 67 bc 31 24 57 b3
       0.026238678 0.0006406847 -0.014120144 -5.0091504e-08
000190 fe 3c c5 3c 1a 69 03 3d 42 b5 98 bc 43 d4 d1 3b
       0.024076935 0.032082655 -0.018641118 0.0064034774
0001a0 00 00 00 00 66 b6 c0 bc bc 64 d2 bc 00 00 00 00
       0.0 -0.023524474 -0.0256828 0.0
0001b0 61 d7 e7 3c cc 30 7f bc 8b 0a 20 91 46 71 e3 3c
       0.028300943 -0.015575599 -1.2625023e-28 0.027763974
0001c0 07 06 7e 3c 9a 94 ae 3a 5b 30 21 bc 78 1f 96 bc
       0.015504367 0.0013319433 -0.009838189 -0.018325552
0001d0 e8 0d 19 bc 33 19 00 3d 00 00 00 00 2e f1 9a bc
       -0.009341694 0.03127403 0.0 -0.018913832
0001e0 1f ac c6 3c fa bd a6 3c 13 9f c3 3c 7c 4b 0c 3d
       0.024251996 0.02035426 0.023879563 0.034251675
0001f0 f4 d4 7e 1b 6f 0f eb bb 87 6c ac ba 00 00 00 00
       2.1079196e-22 -0.0071734707 -0.0013154902 0.0

sequential/dense_1/BiasAdd/ReadVariableOp f4 [2]
000000 35 ae 65 3c 3a ae 65 bc
       0.014018585 -0.01401859

sequential/dense/MatMul f4 [128, 64]
000000 c9 d6 19 3e 76 a1 20 3d e2 7c 03 3d 35 08 f4 3c
       0.1502334 0.03921648 0.03210152 0.02978907
000010 2f 2e f5 bd bb 7e 23 3e db 2d 06 3d fd 06 82 3c
       -0.119716994 0.15966313 0.032758575 0.015872473
000020 c0 e0 4c bd ec bb 38 3d 5e 9b 96 bc 16 18 88 bd
       -0.050019026 0.04510109 -0.018384632 -0.06645219
000030 76 da 12 3e 5a c0 22 be 62 12 e4 3d bd d5 1a 3e
       0.14341149 -0.15893689 0.11136319 0.15120597
000040 ed 74 87 3d bd 1d e8 bd c5 02 5d bc 2e 19 99 b8
       0.06614099 -0.11333797 -0.01348943 -7.3002986e-05
000050 3b c4 20 3e 3a dc b3 3d 27 e2 27 3d 76 ba 32 bd
       0.15699856 0.08782239 0.04098716 -0.043634854
000060 e2 66 87 bd 9e 9f 07 3d d5 d7 f4 3d f9 43 80 bd
       -0.0661142 0.033111207 0.11955229 -0.06262965
000070 3f 81 fb bd 3e 29 fb bd 20 8a 23 be c8 e1 3f 3d
       -0.12280511 -0.12263726 -0.1597066 0.04684618
000080 a0 59 2c 3e e5 04 98 3b 12 e6 37 bd e6 f3 c0 3d
       0.16831064 0.0046392553 -0.044897147 0.0942152
000090 ff 37 1d 3d 74 2c 00 be 4c e4 c8 bd 6a 95 b3 3d
       0.03838348 -0.12516958 -0.09809169 0.08768733
0000a0 fd b8 28 be 48 dd b4 bd 26 b8 0c 3d de fb c4 bd
       -0.16476817 -0.088312685 0.034355305 -0.09618352
0000b0 57 d2 0b be ea 24 b9 3d 46 bc 34 be f1 c0 f1 3d
       -0.13654457 0.09040244 -0.17649946 0.11804379
0000c0 b4 57 16 3d be 1c 89 bc 8b 6b 5b bc 91 b4 f3 3c
       0.036704734 -0.016737338 -0.013392339 0.029749187
0000d0 3a 44 44 bd 9f 71 27 bd 28 ad 21 be 46 b9 e6 bd
       -0.04791663 -0.040879842 -0.1578871 -0.11265807
0000e0 7e 23 3c 3d 84 37 fd bd 64 2d 4b 3d 47 07 0f 3e
       0.045932285 -0.123641044 0.049603835 0.1396762
0000f0 ad b6 35 3d cc ce 1e 3e 6c f4 0a 3c 02 6d c0 bc
       0.044363666 0.15508574 0.008481126 -0.023489479
000100 33 c8 0c 3e 32 e7 0a 3e cd 00 79 3d 64 f2 9c 3e
       0.13748245 0.13564757 0.06079178 0.3065368
000110 ef dd 8d 3d 46 6e 4f bd 7e c5 78 bb 36 62 0f be
       0.06927096 -0.050642274 -0.0037959511 -0.14002308
000120 ef 96 50 bd 97 9b d8 bd a4 6d 07 be 89 98 f9 bd
       -0.05092519 -0.105765514 -0.13225418 -0.12187297
000130 bc e5 15 be 60 72 27 bd 15 ec 82 bc f0 c8 b5 3c
       -0.14638418 -0.04088056 -0.015981713 0.022190541
000140 2a c6 ae bc 1b 83 8a bd 8e 82 eb bd 47 9f 53 3e
       -0.021334726 -0.06763288 -0.11499511 0.20666228
000150 4e 35 46 3e f8 30 72 3e f9 5c 8d 3e cb 81 0c 3e
       0.19356272 0.23651493 0.27609995 0.13721387
000160 16 81 40 3e c0 d6 10 b6 3e eb 01 be 06 c1 ea 3d
       0.18799242 -2.1582673e-06 -0.12687394 0.114625975
000170 60 8c 9b bb af ec b0 bd 71 0b 5f 3e 28 92 26 bd
       -0.0047469586 -0.08638894 0.21781708 -0.04066673
000180 48 d4 09 3d 0f e4 24 3e dc e3 63 3c 7b ae 54 3c
       0.033649713 0.16102622 0.013909306 0.0129810525
000190 f8 40 9b bd 79 bc 17 bd b6 5c 2f 3c fe f5 a4 3c
       -0.07580751 -0.037044976 0.010703256 0.02013683
0001a0 73 94 04 3d e9 26 24 3e 67 37 2b be 40 21 8e 3c
       0.032368135 0.16030468 -0.16720353 0.01734984
0001b0 0b 1b ed bc de 0d 0a be 2d a3 a7 3c 90 14 7c 3e
       -0.02894356 -0.13481852 0.02046355 0.24617219
0001c0 53 17 bf bd 7a f1 01 3e bb 4d 85 bc 3b 26 bc 3d
       -0.093306206 0.12689772 -0.016272416 0.091869794
0001d0 63 2d 2f 3e 2f 03 83 3e 5c 23 8a bd 4a 85 d8 3c
       0.17107157 0.25588366 -0.067450255 0.026430745
0001e0 e9 22 13 be 52 6e 6c 3e 63 6a d1 bc ee 46 dd bb
       -0.14368786 0.23088959 -0.025563424 -0.0067528402
0001f0 f9 58 4f 3e 51 b4 9e 3e b5 db 92 bd e5 f9 ed 3d
       0.20248784 0.30996946 -0.07170812 0.11619929
000200 82 2d 0c 3e b8 43 d5 bc 1f 3b 82 3e 57 f3 49 bc
       0.13689235 -0.026033267 0.2543573 -0.012326083
000210 6b 83 fe bd fa 2f a7 3c b1 3f 1e be 6b cb 19 bd
       -0.1242741 0.02040862 -0.15453984 -0.03754751
000220 35 7e 09 be 0f 68 7a bd ac 2f 22 bd 84 dd 23 be
       -0.1342705 -0.061134394 -0.039596245 -0.1600247
000230 45 2d ae 3d c4 8b 86 bc ff 85 6e 3d 14 d2 04 3e
       0.08504728 -0.016424067 0.058233257 0.12970763
000240 1e 17 2c 3c 80 db 99 ba 2f 27 b4 bd af d1 b3 3d
       0.010503558 -0.001173839 -0.08796536 0.08780228
000250 bf e8 3e 3d 1e f8 a7 3d 63 43 27 3e f0 78 0b 3e
       0.046608683 0.082016215 0.163343 0.13620353
000260 01 bb e3 bc 41 68 a3 3d 5b 7a 25 3e c7 38 83 bd
       -0.027799131 0.07978869 0.16159956 -0.06407314
000270 50 24 2c 3d d8 70 b9 bc 31 57 a9 3d 80 a2 4f bd
       0.042026818 -0.022636816 0.082685836 -0.05069208
000280 24 2d 1c be c1 b2 9a bd 3a 4d 70 ba d0 aa 07 3e
       -0.15251595 -0.07553626 -0.0009166781 0.13248754
000290 a7 28 d2 bd af 43 11 bd aa d3 4d 3e b4 aa ff 3d
       -0.1026166 -0.03546494 0.20100275 0.12483731
0002a0 4a 4d 8f bd 05 0d 18 be 47 12 c8 bd 18 67 80 3c
       -0.069971636 -0.14848717 -0.09769111 0.015674159
0002b0 9c f1 3f 3b df 6f bc bd ae e8 07 3e b6 ad 90 bc
       0.0029288298 -0.09201025 0.13272354 -0.017660957
0002c0 d8 6c 74 3d 5c fd cf bd 2f 1d 00 bd e3 ae d8 3c
       0.059674114 -0.10155746 -0.03127783 0.02645058
0002d0 21 3e de 3c 26 0b 28 3e e6 0f 2d 3e 9a 87 b3 3d
       0.027129235 0.16410503 0.16900596 0.08766098
0002e0 f9 6c a9 bd 6c fb 3a 3e 34 23 9a bb f5 de 9d 3e
       -0.08272738 0.18259972 -0.0047039036 0.30834165
0002f0 92 9f d8 3d bc 41 9a 3e e1 d8 36 3e 87 02 07 3e
       0.105773106 0.30128276 0.1785617 0.13184558
000300 6b cd b1 3d 54 ba 89 3a 6c 65 2d be 32 4d d8 bd
       0.086817585 0.0010507801 -0.1693322 -0.10561599
000310 b7 5b 16 3e 40 57 31 3e d9 60 7f bc d5 a7 9b 3d
       0.14683424 0.1731844 -0.015587055 0.07600371
000320 64 c3 19 3d 1c 6b 2d be 3b 28 f5 3d 0b 0f 53 3d
       0.037539855 -0.1693539 0.11970564 0.051528018
000330 54 be 1c 3e ce ec 67 be d2 c1 52 bd c9 34 ea bd
       0.1530698 -0.22648928 -0.051454373 -0.11435849
000340 8e 6d 43 3e 18 0a d8 3c d9 90 f0 3c 40 12 40 bd
       0.1908476 0.026372 0.029365944 -0.046892405
000350 28 bb 77 be a3 78 91 bd 77 49 de bd 47 c1 70 3d
       -0.24192488 -0.07103088 -0.10853856 0.058778074
000360 f0 0d 23 3c f4 8c 13 3d bd 9c e6 bb ad 6f f9 bd
       0.009952053 0.036023095 -0.0070377276 -0.121795036
000370 c0 8a 7d 39 ac b7 c6 3d e3 0a bd bd 80 82 86 bd
       0.00024179649 0.097030014 -0.09230592 -0.0656786
000380 29 fa c9 3d 59 3e f3 bd 0d 73 43 3e c8 b4 86 be
       0.098621674 -0.11877126 0.19086857 -0.263098
000390 18 0c fd ba d7 78 87 be e9 d6 a3 be 38 7b 90 bd
       -0.0019305972 -0.2645938 -0.319999 -0.07054752
0003a0 cb 29 c3 bc d0 77 13 3e db 31 b6 bd 73 5e 12 bd
       -0.02382364 0.14401174 -0.08896228 -0.035734605
0003b0 ba e2 28 3e cc cb 26 be e4 18 ee bc 97 d4 40 be
       0.1649274 -0.1628868 -0.029064603 -0.18831097
0003c0 3b e4 ca b9 40 8d 8c bb 86 32 30 bd 22 2f 08 bc
       -0.00038698487 -0.0042892992 -0.043016933 -0.008312019
0003d0 e2 14 01 bd 63 fa 2b bd 94 69 a4 3d 38 87 45 be
       -0.031514056 -0.041986834 0.0802795 -0.19289863
0003e0 80 d2 1a be 0c 50 b2 bd 1e 2b e9 bc 4e ac 49 bd
       -0.15119362 -0.08706674 -0.028462943 -0.04923659
0003f0 39 d9 c4 3d e4 4a 21 bd b7 b0 96 bd f1 82 70 3d
       0.096117444 -0.039378062 -0.073579244 0.058718625

sequential/dense_1/MatMul f4 [2, 128]
000000 9d 39 17 bd 34 01 18 3d 34 f7 69 be 3b 7b 50 3e
       -0.03692018 0.037110522 -0.22848207 0.20359509
000010 6b d4 46 3e cc d9 93 bd 09 f2 0c be e5 70 a6 be
       0.19416969 -0.07219276 -0.13764204 -0.32508007
000020 ce e3 9d bd 96 8a 87 bd 9b 38 71 bd 5f 4b ed bd
       -0.07709466 -0.0661823 -0.058891874 -0.115866415
000030 94 c4 ad 3d 82 bd 97 3e 61 1e 5a 3d 3b 67 39 be
       0.0848476 0.2963677 0.053251628 -0.18105786
000040 31 61 6a be a3 86 e0 3c 53 7b 3c 3d 46 6f 4c 3e
       -0.22888638 0.02740795 0.04601605 0.19964322
000050 d8 ba 17 3e 67 e8 60 be 72 28 60 3e 40 44 95 3e
       0.14817369 -0.21963654 0.21890429 0.29153633
000060 fe da 48 3e 0a 10 b2 bd a8 5d 10 be ed ff 33 be
       0.19614789 -0.086944655 -0.14098227 -0.17578097
000070 f8 c5 43 3e 74 16 42 be 92 d3 fc bd 6c f4 dd bd
       0.19118488 -0.18953878 -0.12345041 -0.108376354
000080 7e 67 1d bd 9c 1e 99 be 57 cc 0b bd 90 65 38 3e
       -0.038428776 -0.29906166 -0.03413042 0.18007493
000090 e3 e4 10 be 6e d3 8d bd 42 b9 2e be 27 91 68 be
       -0.14149813 -0.06925093 -0.17062858 -0.22711621
0000a0 8a 37 cd 3d 32 b5 b3 3d 98 cf 87 be 59 77 48 bd
       0.10020359 0.08774795 -0.2652557 -0.048941944
0000b0 bf 05 42 be 95 e9 87 3d cd fc 62 3e 23 e6 3d be
       -0.18947504 0.06636349 0.22166748 -0.18544821
0000c0 86 d7 88 3d bc e4 81 be 6f 0a 2c 3e d0 8e 5d 3d
       0.06681733 -0.25369823 0.16800855 0.054091275
0000d0 2b 5d c5 bd 85 ce 78 be 3c 2c 93 bc 67 89 45 3e
       -0.09636911 -0.24297531 -0.017965429 0.19290696
0000e0 e2 7d 5d 3d 8a b2 16 bb dd 49 0e 3e 60 57 7e 3e
       0.05407513 -0.0022994601 0.13895364 0.24838018
0000f0 ac d1 15 be 63 c3 42 be 11 07 80 be 56 f8 2c 3d
       -0.14630765 -0.19019847 -0.2500539 0.04222902
000100 d6 3d 9f bd 56 de 59 bd 66 a6 90 3c e3 5f af 3d
       -0.07775466 -0.05319055 0.01765747 0.08563211
000110 09 35 90 bd 4d f6 87 be 38 7e 8f 3e d0 a4 5e 3c
       -0.07041366 -0.265551 0.28025985 0.013589099
000120 b3 b1 ac bd 4d 9d 1e be 39 12 78 3e bb 2f 82 be
       -0.08432331 -0.15489693 0.24225701 -0.2542704
000130 88 e5 9b bd 75 5f 00 be 53 bd 0d bd 20 c0 6d be
       -0.07612139 -0.12536414 -0.03460438 -0.23217821
000140 6a 95 59 3e 75 84 37 be b6 de 7b be f9 ff 62 bc
       0.21248403 -0.17921622 -0.24596676 -0.013854974
000150 2a 6d 16 3e 14 2a 23 be 9c 41 92 be 5c 41 5b be
       0.1469008 -0.1593402 -0.2856568 -0.21411651
000160 b5 52 a5 bd 5e b7 6f 3e 04 f6 82 bd e7 6d 80 be
       -0.08072416 0.23409793 -0.0639458 -0.2508385
000170 b9 60 99 be 7c 28 10 bd c8 12 06 be f5 86 5a be
       -0.29956606 -0.03519486 -0.13093102 -0.21340545
000180 cf 30 3b 3e d0 e6 2f 3e a4 14 74 be 2c 10 57 3d
       0.18280338 0.17177892 -0.23835999 0.052505657
000190 9f 82 bf 3c cd b4 e9 3d b6 9e c0 bc 29 36 12 3d
       0.023377715 0.11411438 -0.02351318 0.035696182
0001a0 39 4a 4f be 34 21 f5 3d 31 75 48 3d 02 68 fd bd
       -0.20243157 0.119692236 0.048939887 -0.123733535
0001b0 79 e0 8f 3d ac 6d 47 3e 4a 83 e2 3d a1 55 97 3d
       0.07025237 0.1947543 0.11060198 0.07389379
0001c0 5c e3 8b 3d 83 62 03 be 9a 70 fa bd 57 ba ab bd
       0.06830475 -0.12830548 -0.12228508 -0.08385151
0001d0 0c d7 c2 3c 41 66 f1 3d d1 99 1c 3e 18 b7 2e bd
       0.023784183 0.117870815 0.15293051 -0.04265508
0001e0 7e 5e 5e 3e b6 52 0b 3e a5 03 4a 3e b8 ba 6e 3d
       0.21715733 0.1360577 0.19727953 0.058283538
0001f0 72 93 06 be 0b 66 eb bd 67 61 2c 3e ee 49 f3 3d
       -0.13142183 -0.114940725 0.16834031 0.11879335
000200 90 19 15 3c 6c 57 a2 3e 55 c8 1a 3e 7d 46 4d 3d
       0.009100333 0.31707323 0.15115483 0.05011605
000210 52 68 da bd 56 15 50 3e 5a 97 d2 3d d1 b3 9d 3d
       -0.10664429 0.20320639 0.10282774 0.07700313
000220 2d 3a 4b be b0 dd 33 bc bb 76 99 3e a4 b3 a9 bd
       -0.19846411 -0.010978147 0.29973397 -0.08286217
000230 2e f1 62 be 55 2b 54 bd 9d 60 c5 bd ad cd 78 3e
       -0.22162315 -0.051799137 -0.09637568 0.24297209
000240 20 b7 cc 3d 4e 50 a3 bd cf 2b 3e be bc ab be bd
       0.09995866 -0.07974301 -0.18571399 -0.093100995
000250 7c 77 c7 b8 87 8b 06 3d 73 aa a3 bd 89 e3 5a bd
       -9.511315e-05 0.032847907 -0.07991495 -0.05343965
000260 31 65 6b be 59 f6 10 bd b1 4e 8f 3e b6 98 a1 3d
       -0.2298782 -0.035391185 0.27989724 0.078904554
000270 22 93 44 be c4 f8 1a bc 95 a1 99 3e 60 29 1a be
       -0.19196752 -0.009458724 0.3000609 -0.15054846
000280 26 6c 67 be 77 40 06 3d c6 ba 81 3e 61 97 55 3d
       -0.22599849 0.032776322 0.2533781 0.05214632
000290 54 36 11 bd f5 da 84 be 76 ef 80 3e b5 5f 4a 3a
       -0.035452202 -0.259483 0.25182694 0.000771995
0002a0 a2 d5 21 be 00 23 83 3a 8c 64 4e 3e 05 79 fa 3d
       -0.1580415 0.0010004938 0.20155543 0.12230114
0002b0 bc 9e 93 3e 24 f0 69 be a3 6d 0f be ba 7f 93 bd
       0.28832042 -0.22845513 -0.14006667 -0.07202096
0002c0 c4 3d 36 3d 81 7c 83 bd 4d 1b 2b 3e cb 21 72 be
       0.044492498 -0.064202316 0.16709633 -0.23645703
0002d0 e7 60 8b be a6 72 a0 3c 02 ed 54 3e 47 06 ba bd
       -0.27222368 0.019585919 0.20793536 -0.090832286
0002e0 60 2b be bd 4a d1 9a 3d 56 5d 2d 3e aa 0c 88 be
       -0.09285617 0.0755945 0.16930136 -0.26572162
0002f0 a1 07 26 3e 9a 2f 35 3e 44 ca eb 3c ca 5a 3d 3e
       0.16213848 0.1769394 0.028782971 0.18491665
000300 ac ee 53 be 8f 93 88 3e 89 32 71 be 8a 6f e0 bd
       -0.20696515 0.26675078 -0.23554434 -0.109587744
000310 80 02 9f 3c f4 1e 4d 3e d5 8b e9 bd 4d 86 89 bd
       0.019410372 0.20031339 -0.11403624 -0.06715069
000320 4c 28 55 3d e1 f1 27 be 64 73 66 bc 1e ed 84 bc
       0.052040383 -0.16400863 -0.014065597 -0.016226348
000330 79 18 33 be c0 d8 55 3c d0 e2 8b 3e 04 e9 03 3d
       -0.17489804 0.0130521655 0.27321482 0.032204643
000340 6a 52 2f be a0 fd 32 3c 59 f4 af ba 62 07 88 3e
       -0.17121282 0.010924727 -0.0013424262 0.26568133
000350 0a f6 3f be 32 8d b1 3d b7 aa 90 3e e7 69 20 3e
       -0.187462 0.08669509 0.28255245 0.15665399
000360 41 e5 8e be b6 8b 8b be 99 81 51 3e e3 f2 38 3d
       -0.27909282 -0.27255028 0.20459594 0.04515351
000370 02 64 1e 3e 30 fe 3d be 93 eb ee bd aa 2a 4b 3e
       0.15467837 -0.18553996 -0.11666026 0.19840494
000380 db f2 76 be bc d9 0f 3e 0a f4 58 3d c5 f0 1a 3e
       -0.2411608 0.14047903 0.05296711 0.15130909
000390 ee 17 5a be 1c 11 83 be cd ea 79 3e 25 79 9a 3e
       -0.21298191 -0.2559899 0.24405976 0.3017055
0003a0 40 1a 60 bd 42 06 27 3e a7 a2 4a 3e 97 f6 0b be
       -0.054712534 0.16310981 0.1978861 -0.13668285
0003b0 85 a0 15 be 86 dc 0a 3e 45 f0 05 3e b2 c2 39 be
       -0.14612015 0.13560686 0.13079937 -0.18140677
0003c0 df 99 9d bd 1b 00 30 3e df aa 7a 3e 8a b5 f3 bc
       -0.07695364 0.1718754 0.24479245 -0.02974965
0003d0 72 27 99 3e e8 a4 55 bd 54 87 c3 bd 63 c3 85 3e
       0.29912907 -0.05215922 -0.09547296 0.2612563
0003e0 d7 1f 4e bd a4 37 53 be 68 8f b9 bd c7 10 8a be
       -0.050323334 -0.20626694 -0.09060556 -0.26965925
0003f0 99 f1 3f 3e de ba 53 3e 61 06 02 be fe 96 88 bd
       0.18744506 0.20676753 -0.12697746 -0.066694245
